fno_unnormalized_9999.pt (torch, 189454 bytes, 36 tensors)

lifting.weight f4 [4, 4]
00000000: 6025 adbf c63a 0d3f 70ab fa3d fd1c 6a3e
00000010: 780d 9ebc ad0e 163d a2b7 7dbf d32a a0be
00000020: a42f dc3d c579 633f 99d5 c9bd 937a f43c
00000030: 1b57 f4be f71b 483e f282 babf 7380 093f
-1.3527031 0.55167806 0.1223973 0.2286262 -0.019293532 0.03663509 -0.99108326 -0.31282672
0.10751274 0.8885768 -0.09855194 0.029843604 -0.47722706 0.19541918 -1.4571211 0.5371162

lifting.bias f4 [4]
00000000: 5570 b9be 000e 8e3e 4988 2ebf 1939 0cbf
-0.36218515 0.27745056 -0.68176705 -0.54774624

fourier_blocks.0.conv.weight f4 [4, 4, 1]
00000000: 2164 cfbe e30c 273f 29fa 73bf ce62 35bf
00000010: 620c 9cbf 763c 00bf de20 26bf 901a 4f3e
00000020: 59a0 413e 75cd 423f 9d38 3e3e e56f f43e
00000030: 2f7e 233f 8e50 2b3f a1a3 873f 225e 623f
-0.4050608 0.6525404 -0.9530359 -0.7085389 -1.2191279 -0.50092256 -0.648939 0.20224977
0.18908824 0.7609475 0.18576284 0.4774162 0.63864416 0.6691979 1.059681 0.88424885

fourier_blocks.0.conv.bias f4 [4]
00000000: 80e2 f5bd 3065 91be 1dcb 0b3f 26d8 42bf
-0.12006092 -0.28397512 0.546068 -0.76111066

fourier_blocks.1.conv.weight f4 [4, 4, 1]
00000000: 1275 873f d518 b23f 36fa d23e cdc4 52bc
00000010: 3964 373f d097 f1be 1fa6 8b3f df10 84bf
00000020: 3024 013e 2534 98be 3baf 183f e529 3d3f
00000030: 4326 5dbf 494f 8b3f e7c5 293f 2dff c13e
1.0582602 1.3913828 0.4120652 -0.012864304 0.716373 -0.47186136 1.0910071 -1.0317649
0.1261146 -0.29727283 0.5964238 0.7389205 -0.8638651 1.0883571 0.663176 0.37889996

fourier_blocks.1.conv.bias f4 [4]
00000000: 0db9 69bf 6e2f 0f3f c1fd 843e 5012 d33e
-0.9129799 0.55931747 0.2597485 0.4122491

fourier_blocks.2.conv.weight f4 [4, 4, 1]
00000000: b0f8 59be 71b0 e9be b5d7 243f c95a 0abf
00000010: 621c b1be 9bd4 dfbe f13d c73e 04ca 82bf
00000020: 56c9 9740 c9ae b73e 7794 563f 52cd 2ec0
00000030: 20b7 073f cf51 53bf 1962 35bf a251 26bf
-0.21286273 -0.45642427 0.6439164 -0.5404478 -0.34591967 -0.43716893 0.38914445 -1.02179
4.743327 0.35875538 0.8382029 -2.7312818 0.530138 -0.82546705 -0.7085281 -0.6496831

fourier_blocks.2.conv.bias f4 [4]
00000000: 077b 6ebe 12e3 97be 3e28 21bf f07a df3d
-0.23289119 -0.29665428 -0.6295203 0.1091212

fourier_blocks.3.conv.weight f4 [4, 4, 1]
00000000: 1d47 cdbe 08dc cdbe ef58 663f 4ae4 3e3f
00000010: ca00 023f 69de aabe 28eb 06c0 d6aa f73e
00000020: 7e33 66bf 60bd 153f 9717 bfbf f593 9d3e
00000030: fb94 8ebd 543b 55bc fe2f b1bf 8b96 d93e
-0.40093318 -0.40206933 0.8997945 0.7456709 0.50782454 -0.3337281 -2.1081028 0.48372525
-0.8992232 0.5849209 -1.4929074 0.30776945 -0.069620095 -0.013014633 -1.3842771 0.42497668

fourier_blocks.3.conv.bias f4 [4]
00000000: 3d8f 953e 6492 2abe 98d9 babe 7867 75bf
0.29210845 -0.16657406 -0.36494136 -0.95861006

projecting.weight f4 [3, 4]
00000000: 2f34 76bf 5fe0 a23f 7c52 b8bf da89 e3be
00000010: 7b9b 00bf 06c6 12bd e5f4 0f3d a6bd 1fbe
00000020: b976 b53f c740 b93f fb45 c53e dcb5 22bf
-0.96173376 1.2724723 -1.4400172 -0.4444111 -0.50237244 -0.03583338 0.03514566 -0.15599689
1.4176856 1.4472893 0.38529953 -0.63558745

projecting.bias f4 [3]
00000000: 9f2b e13e c4b8 e53e e6a8 30be
0.43978593 0.44867527 -0.1725193

exp_avg f4 [4, 4]
00000000: e546 253a 7c51 203b c29a 6a3a 0000 0000
00000010: e1fd 9138 c937 833a 5ae6 df39 0000 0000
00000020: e497 d339 ff40 6d3b eb66 a63a 0000 0000
00000030: 18be 8339 5628 4a3b 229d 953a 0000 0000
0.00063048146 0.002446263 0.00089494523 0.0 6.9614274e-05 0.0010011132 0.000427055 0.0
0.00040358223 0.003620207 0.0012695467 0.0 0.00025127898 0.0030846796 0.0011414627 0.0

exp_avg_sq f4 [4, 4]
00000000: 4c59 1d39 38c8 c93a d6f1 5939 0000 0000
00000010: 2a49 bc34 1c31 6939 7315 7d37 0000 0000
00000020: e257 bb38 e38c 5b3b 73a0 d739 0000 0000
00000030: b9d2 0738 a614 163b 7fef 7339 0000 0000
0.00015005952 0.0015394753 0.00020784824 0.0 3.5070963e-07 0.00022238906 1.5084969e-05 0.0
8.933224e-05 0.0033500723 0.0004112754 0.0 3.238276e-05 0.002290049 0.00023263505 0.0

exp_avg f4 [4]
00000000: 5c22 ab3a d3e5 9f39 dee9 b33a 5015 8a3a
0.0013056505 0.00030498076 0.0013726314 0.0010534916

exp_avg_sq f4 [4]
00000000: 9897 083a f2db a635 4066 373a 5f66 8739
0.00052105775 1.2431976e-06 0.00069961324 0.0002582548

exp_avg f4 [4, 4, 1]
00000000: 4e52 50b9 955b 3239 efeb 1cba 1410 193a
00000010: a2e4 3438 d518 b2b7 057e 9d36 0084 07b7
00000020: b1e1 1439 8817 01b8 791d dd38 98ee d537
00000030: f17a f739 e4b6 cbb9 8331 7b3a e025 86ba
-0.00019867087 0.0001700952 -0.00059860846 0.00058388826 4.3128275e-05 -2.1230817e-05 4.693635e-06 -8.077361e-06
0.00014198456 -3.0777912e-05 0.00010543591 2.5502683e-05 0.0004720311 -0.0003885544 0.0009582268 -0.0010234676

exp_avg_sq f4 [4, 4, 1]
00000000: a0cf 8f36 e2f9 d136 36a1 3638 1fda 4f39
00000010: f00c 1336 c785 1934 24fd a034 5d4b 7636
00000020: 8d8b 3a36 4d17 8634 40f9 4436 13bf 1934
00000030: b06d 4b38 907d 7e37 9d8d 3939 e3f0 cb38
4.285903e-06 6.2577756e-06 4.354232e-05 0.00019822315 2.1912238e-06 1.4297903e-07 2.9986506e-07 3.6700724e-06
2.779739e-06 2.4976399e-07 2.9351359e-06 1.4318748e-07 4.8501126e-05 1.5168815e-05 0.0001769573 9.724663e-05

exp_avg f4 [4]
00000000: 1245 d7b9 7937 24b7 e4a7 14b8 17ea 1e3a
-0.00041059457 -9.7880775e-06 -3.544231e-05 0.0006062104

exp_avg_sq f4 [4]
00000000: 03d6 f238 9a4a 0736 157d e233 cb3e 2938
0.00011579322 2.0159991e-06 1.05466974e-07 4.035122e-05

exp_avg f4 [4, 4, 1]
00000000: 2f49 e737 e87c 0ab8 df7e 20b8 61df 7c38
00000010: 65f2 4d38 78b5 9b38 9563 6838 38f1 1838
00000020: 70a4 6fb7 d0ac bbb8 9be8 c2b8 88a1 8638
00000030: 8d27 63b7 3470 1f37 1d39 a638 16ef beb8
2.7571425e-05 -3.3018092e-05 -3.826513e-05 6.028952e-05 4.9101556e-05 7.424777e-05 5.5405853e-05 3.6464276e-05
-1.4283796e-05 -8.949044e-05 -9.293967e-05 6.4197055e-05 -1.3539463e-05 9.503263e-06 7.926135e-05 -9.104439e-05

exp_avg_sq f4 [4, 4, 1]
00000000: 5b07 cc34 a172 5c35 cde7 8936 6b53 c136
00000010: b6c4 1335 936d 7c35 3f28 d934 6c18 8f34
00000020: dfb0 c233 0401 9b35 1170 8135 0774 8e34
00000030: 352a 1d35 270e 3c35 bcfc 4936 328e 5336
3.8003313e-07 8.2123194e-07 4.1099033e-06 5.7615594e-06 5.504802e-07 9.4036767e-07 4.0448683e-07 2.6653595e-07
9.0660016e-08 1.1548696e-06 9.643865e-07 2.6533982e-07 5.8548477e-07 7.005605e-07 3.0098445e-06 3.1524219e-06

exp_avg f4 [4]
00000000: b89b 82b8 ed33 96b8 d081 1db8 4d87 0c39
-6.227888e-05 -7.162229e-05 -3.7552614e-05 0.00013401844

exp_avg_sq f4 [4]
00000000: ed7a c436 4796 8b35 1915 4233 0082 ce36
5.8555656e-06 1.0400043e-06 4.5188333e-08 6.1544124e-06

exp_avg f4 [4, 4, 1]
00000000: 0996 59b9 14ee 2839 3ffb 5437 e7f8 41b9
00000010: 9da4 0239 8b54 43b9 879b 6db7 d346 b138
00000020: 0ca9 d835 84f1 a3b7 eaf1 ff35 14ff 8836
00000030: cbe8 dab7 5ed2 76b7 8e9b b936 f79a 8eb7
-0.00020750625 0.0001611042 1.26946825e-05 -0.00018498638 0.0001245909 -0.00018628144 -1.4162512e-05 8.45321e-05
1.6142453e-06 -1.9543579e-05 1.9069387e-06 4.082811e-06 -2.6096028e-05 -1.47117225e-05 5.5315386e-06 -1.699988e-05

exp_avg_sq f4 [4, 4, 1]
00000000: bb42 4236 4830 0e36 569d 8033 86cd 1136
00000010: c405 3335 181a fb35 8cfa 9632 47f6 d034
00000020: cec5 0532 a847 5e34 336a 4f32 37d7 5a32
00000030: bf78 cd33 98fd 8134 95e5 6133 72d4 0034
2.8947095e-06 2.1187752e-06 5.989084e-08 2.1726314e-06 6.6691086e-07 1.8708552e-06 1.7576234e-08 3.892221e-07
7.7865945e-09 2.070143e-07 1.2073133e-08 1.2738204e-08 9.56802e-08 2.4212636e-07 5.25957e-08 1.1998216e-07

exp_avg f4 [4]
00000000: 64fc 4839 12e0 5ab9 a77e c8b7 f4c6 2cb8
0.00019167509 -0.00020873573 -2.3900835e-05 -4.1193285e-05

exp_avg_sq f4 [4]
00000000: e3c4 3a36 2b72 1736 d41c 6d34 8a65 c734
2.7830763e-06 2.2567208e-06 2.2082833e-07 3.7140518e-07

exp_avg f4 [4, 4, 1]
00000000: d484 21b9 af7e 25b9 7935 3cb8 e331 1db9
00000010: 45b1 46b8 c30f e338 7cfe 84b9 e552 2eb9
00000020: b633 dbb8 13a4 99b9 c113 df39 b750 3739
00000030: 50ea 3f38 1fd4 1fb8 3b23 6c39 aa6f f138
-0.00015403639 -0.0001578282 -4.4872493e-05 -0.00014991271 -4.7371974e-05 0.00010827139 -0.00025366608 -0.00016624814
-0.00010452366 -0.0002930468 0.00042548592 0.00017482309 4.575617e-05 -3.8106107e-05 0.00022519838 0.000115125746

exp_avg_sq f4 [4, 4, 1]
00000000: 165d 4035 3505 9d35 213d 0a35 8f36 5635
00000010: 0b20 d534 ae6a a635 4bb0 8136 7977 cf35
00000020: 919a a734 cd31 9b36 4ccc 2e37 d63a 3c36
00000030: 6c50 b233 d47b 9434 9a65 0436 a0cb df34
7.166103e-07 1.1698927e-06 5.149796e-07 7.9800606e-07 3.9697656e-07 1.2399012e-06 3.865023e-06 1.5457473e-06
3.1218636e-07 4.6251575e-06 1.0418775e-05 2.804843e-06 8.3033996e-08 2.7657245e-07 1.9728673e-06 4.1685144e-07

exp_avg f4 [4]
00000000: 8601 4a38 de2f 8e39 deb0 dfb9 f9e7 6cb9
4.816197e-05 0.00027120014 -0.0004266565 -0.0002259313

exp_avg_sq f4 [4]
00000000: a01d 0c35 b062 9536 66ce 3737 94cc 0b36
5.2197174e-07 4.452035e-06 1.0955706e-05 2.0831694e-06

exp_avg f4 [3, 4]
00000000: c32d 8eb9 ff33 bc39 40c0 8238 6bc5 2fb9
00000010: 50a4 25b5 4d8b a1b6 2012 1d37 6a00 86b7
00000020: 296d 8fb8 7946 3339 dee8 c838 9050 e8b8
-0.00027118446 0.00035896894 6.2346924e-05 -0.00016762844 -6.1706396e-07 -4.8143906e-06 9.362149e-06 -1.5974238e-05
-6.839104e-05 0.00017097023 9.580118e-05 -0.00011077628

exp_avg_sq f4 [3, 4]
00000000: e34b 9236 76c4 d436 1e3d 6435 627d 1d36
00000010: 4143 d133 66e7 3d34 2501 5c33 9526 4633
00000020: c5f2 0635 8ab8 4b35 3d68 9834 9016 8534
4.3599734e-06 6.3409634e-06 8.5025556e-07 2.3467805e-06 9.744554e-08 1.7686179e-07 5.1223783e-08 4.6135558e-08
5.0272166e-07 7.589193e-07 2.838805e-07 2.4789597e-07

exp_avg f4 [3]
00000000: ce9a ba39 9035 8d37 4aa8 6f39
0.00035592023 1.6833452e-05 0.00022855509

exp_avg_sq f4 [3]
00000000: 665a 2837 fa4e 6134 58ee a535
1.0034628e-05 2.098349e-07 1.2362825e-06
