checkpoints/50_modes_5000_n_sols_1000_epochs_20250508_215024.pt (torch, 230714 bytes, 36 tensors)

lifting.weight f4 [4, 4]
0	0x3c842507	0.016130937
1	0xbf6355c1	-0.88802725
2	0x3e5bd2de	0.21467158
3	0xbf4162b1	-0.75541216
4	0xbf95719a	-1.1675293
5	0x3e858acb	0.26082453
6	0x3ef6014c	0.48047864
7	0x3e1a96c3	0.15096574
8	0xbf93be8a	-1.1542523
9	0xbf7e41d6	-0.9931921
10	0x3f9a5192	1.2056143
11	0xbda8c67e	-0.082409844
12	0x3f300988	0.68764544
13	0x3e86e06e	0.263431
14	0x3fb16ec5	1.3861929
15	0xbd9a2735	-0.075270094

lifting.bias f4 [4]
0	0x3d5276ad	0.05138271
1	0xbe9e0ec6	-0.30870646
2	0x3e9568d8	0.29181552
3	0x3f210436	0.6289705

fourier_blocks.0.conv.weight f4 [4, 4, 1]
0	0xbf396b39	-0.72429234
1	0x3c906e37	0.01763068
2	0xbed7dae5	-0.4215919
3	0xbf3e44c7	-0.74323696
4	0x3f0bb99f	0.5458011
5	0xbf349b31	-0.70549303
6	0x3f2eccf9	0.68281513
7	0x3e6d36c5	0.23165424
8	0x3ec427c0	0.38311577
9	0xbf0117c2	-0.50426877
10	0xbfa2820b	-1.2695936
11	0xbf2f0101	-0.68360907
12	0xbea9be42	-0.33152968
13	0x3eec9e30	0.46214437
14	0xbf6c2201	-0.92239386
15	0xbf8abf5b	-1.0839647

fourier_blocks.0.conv.bias f4 [4]
0	0xbeaa2d85	-0.33237854
1	0x3f65c374	0.8975136
2	0x3e2427ff	0.16030882
3	0xbec1ff84	-0.37890255

fourier_blocks.1.conv.weight f4 [4, 4, 1]
0	0xbe60ceee	-0.21953937
1	0xbebe6723	-0.37188062
2	0xbf613dc2	-0.8798486
3	0x3edc1b50	0.42989588
4	0xbe14b7a9	-0.14523186
5	0x3d8b28e1	0.067949064
6	0x3f050e25	0.5197471
7	0x3c21ef32	0.009883689
8	0xbef8de05	-0.48606887
9	0xbfa05532	-1.2526
10	0x3ebb2b40	0.36556435
11	0x3f81fa32	1.0154479
12	0xbe97dc16	-0.296601
13	0x3e521a1c	0.20517772
14	0xbe8c74c5	-0.27432838
15	0xbf06b3e6	-0.52618253

fourier_blocks.1.conv.bias f4 [4]
0	0x3e9033d2	0.28164536
1	0xbed4a2ed	-0.41530553
2	0xbefa0403	-0.48831186
3	0xbf234866	-0.63782346

fourier_blocks.2.conv.weight f4 [4, 4, 1]
0	0x3ebff80b	0.3749393
1	0x3f5b3dc3	0.85641116
2	0x3f01d915	0.50721866
3	0x3ec6bda2	0.38816553
4	0x3ef5054b	0.478556
5	0xbf13b460	-0.57697105
6	0x3e217a32	0.1576927
7	0xbf295638	-0.66147184
8	0x412e7f43	10.90607
9	0xc048895a	-3.1333833
10	0x3eb5ac49	0.35483006
11	0xc035dc38	-2.841566
12	0x3f24956d	0.64290506
13	0xbde1b1f7	-0.11020272
14	0xbf10afd7	-0.5651831
15	0x3efdcde3	0.49571142

fourier_blocks.2.conv.bias f4 [4]
0	0xbf0aeca2	-0.54267323
1	0xbd5b7fb5	-0.053588588
2	0x3e55d454	0.20881778
3	0xbc8dcce8	-0.017309621

fourier_blocks.3.conv.weight f4 [4, 4, 1]
0	0x3f13273c	0.5748174
1	0xbeb426a9	-0.35185745
2	0xbee4ca7b	-0.4468573
3	0x3f430c9d	0.7619112
4	0xbcaff41b	-0.021478703
5	0x3e9ac26c	0.30226457
6	0xbf64de21	-0.8940144
7	0xbf4dbe87	-0.80368847
8	0xbf69e26a	-0.91361105
9	0xbf98e288	-1.1944132
10	0xbf14f3b3	-0.58184355
11	0x3f080b9b	0.5314271
12	0x3f044f56	0.5168356
13	0xbd1baeed	-0.03800862
14	0xbffb982c	-1.9655814
15	0x3f25bd5b	0.6474206

fourier_blocks.3.conv.bias f4 [4]
0	0x3e98ea24	0.29866135
1	0x3f19f019	0.60131985
2	0x3e848357	0.25881454
3	0x3e995d78	0.29954123

projecting.weight f4 [3, 4]
0	0xbfacfbf8	-1.3514395
1	0x3fcc5e51	1.5966283
2	0xbee6388c	-0.44965017
3	0xbf792061	-0.9731503
4	0x3dcf49c5	0.10121492
5	0x3df674b8	0.12033981
6	0xbe63761f	-0.22213028
7	0xbe9ff5b9	-0.3124216
8	0xbc5677f0	-0.013090119
9	0xbc0c2727	-0.0085542565
10	0x3fab7c17	1.3397244
11	0xbfaa8acf	-1.3323611

projecting.bias f4 [3]
0	0x3f8c19a5	1.0945326
1	0x3ee86874	0.4539219
2	0x3c4403c7	0.011963791

exp_avg f4 [4, 4]
0	0xb9c092e5	-0.0003673054
1	0xbb962e75	-0.004583175
2	0xba9b53b4	-0.0011850507
3	0x00000000	0.0
4	0x3b06eb9d	0.0020587214
5	0x3b105bdc	0.0022027409
6	0x3a3f97a1	0.0007308666
7	0x00000000	0.0
8	0x3941d4ee	0.00018485237
9	0xbc73a3fb	-0.014870639
10	0xbb547a2f	-0.003242146
11	0x00000000	0.0
12	0xba93c21d	-0.001127306
13	0xbc33aac4	-0.010966007
14	0xbb1b8032	-0.0023727533
15	0x00000000	0.0

exp_avg_sq f4 [4, 4]
0	0x36dc9f07	6.575024e-06
1	0x3a97197e	0.0011527983
2	0x38ce8658	9.847869e-05
3	0x00000000	0.0
4	0x394448a8	0.00018719083
5	0x3982deb4	0.0002496146
6	0x3807fc5e	3.2421543e-05
7	0x00000000	0.0
8	0x36e794be	6.9016523e-06
9	0x3c0ff91f	0.008787422
10	0x3a0e0f11	0.0005419115
11	0x00000000	0.0
12	0x381ea45f	3.7823218e-05
13	0x3b8ccdee	0.0042970097
14	0x39867ea9	0.0002565284
15	0x00000000	0.0

exp_avg f4 [4]
0	0xbae92341	-0.0017786996
1	0x3b1d069f	0.0023960245
2	0xbb28e0c3	-0.0025768734
3	0xbb1d0b40	-0.0023963004

exp_avg_sq f4 [4]
0	0x392bea42	0.00016395099
1	0x39880515	0.00025943728
2	0x39834b4a	0.00025042362
3	0x396286cf	0.0002160326

exp_avg f4 [4, 4, 1]
0	0xbb01fb09	-0.0019833467
1	0x39c50c71	0.00037584038
2	0xbaea8c50	-0.00178946
3	0x3b0a820b	0.002113464
4	0x3b0bfe29	0.0021361208
5	0xb9c15d54	-0.00036881363
6	0x3afcf56b	0.0019299214
7	0xbb17630c	-0.0023099808
8	0xbb17d4c4	-0.002316759
9	0x3ad67175	0.0016360717
10	0xbac8b673	-0.0015313163
11	0x3a689ce2	0.0008873475
12	0xbb70e587	-0.0036757903
13	0x3a0bbd0c	0.00053305994
14	0xbb6abe2b	-0.0035818915
15	0x3b75a98d	0.0037485093

exp_avg_sq f4 [4, 4, 1]
0	0x39466724	0.00018921174
1	0x370120cf	7.696638e-06
2	0x39139aa5	0.00014076622
3	0x398361d4	0.00025059155
4	0x39986d66	0.00029073207
5	0x3764d76e	1.3640018e-05
6	0x395f83c8	0.0002131603
7	0x39c4a1c0	0.00037504546
8	0x3921ee28	0.00015442877
9	0x38defad7	0.000106325075
10	0x385bf871	5.2445048e-05
11	0x37b6ba75	2.1782917e-05
12	0x39e1452e	0.00042966887
13	0x3741b2fd	1.154537e-05
14	0x39c5fd94	0.00037763698
15	0x3a024ffb	0.00049710245

exp_avg f4 [4]
0	0x3a412a56	0.0007368674
1	0xba64983f	-0.0008720196
2	0xb94e1eb2	-0.00019657126
3	0x3aa58339	0.0012627608

exp_avg_sq f4 [4]
0	0x38038b1c	3.136239e-05
1	0x3831e530	4.2413536e-05
2	0x36dc8d1a	6.5729373e-06
3	0x3860e151	5.3615604e-05

exp_avg f4 [4, 4, 1]
0	0xb713ea31	-8.81641e-06
1	0x3a47e8bd	0.0007625928
2	0xb98e1d65	-0.0002710625
3	0xb94e344a	-0.0001966517
4	0x38fa20cd	0.000119270386
5	0xb9d542f0	-0.00040676398
6	0x399c6927	0.00029832983
7	0x399f50d5	0.00030387068
8	0x396aabd2	0.00022379987
9	0xb983a0d9	-0.00025106108
10	0xb9aef882	-0.0003337302
11	0x36150134	2.220343e-06
12	0x378d45e2	1.6841052e-05
13	0xb99ad2d7	-0.00029530257
14	0x398e2603	0.00027112672
15	0x39ad60f5	0.0003306937

exp_avg_sq f4 [4, 4, 1]
0	0x36c184e4	5.7673187e-06
1	0x37cf6cb2	2.4726938e-05
2	0x368338c1	3.9107113e-06
3	0x36be53e2	5.6722065e-06
4	0x3560a995	8.3693277e-07
5	0x36550d7b	3.174732e-06
6	0x357a16cc	9.316543e-07
7	0x35dcc67f	1.6449047e-06
8	0x355e8a4f	8.290271e-07
9	0x3602214b	1.9390889e-06
10	0x36217608	2.4059573e-06
11	0x349283e4	2.7290582e-07
12	0x3596030b	1.1176757e-06
13	0x366b2fbc	3.5045514e-06
14	0x36679773	3.4509837e-06
15	0x360c2b02	2.088666e-06

exp_avg f4 [4]
0	0x3a0692bb	0.0005133559
1	0xba065ade	-0.00051252346
2	0x39c866f5	0.00038223682
3	0xba089b8e	-0.0005211168

exp_avg_sq f4 [4]
0	0x37a4b05d	1.9632449e-05
1	0x3687b9a9	4.044927e-06
2	0x3663eea4	3.3964543e-06
3	0x36a51773	4.920113e-06

exp_avg f4 [4, 4, 1]
0	0xb88279d1	-6.221573e-05
1	0x385d3b52	5.2745752e-05
2	0x3984dfa2	0.0002534362
3	0xb87a9010	-5.9738813e-05
4	0x394c4903	0.00019482155
5	0xb92291f0	-0.0001550389
6	0xb9863d6f	-0.00025604243
7	0xb6601ff6	-3.3397205e-06
8	0x36b26b5b	5.317311e-06
9	0x36434fd2	2.9103726e-06
10	0xb85de1cc	-5.2900796e-05
11	0x367c0552	3.7554023e-06
12	0xb9d26da4	-0.0004013601
13	0x39ed1062	0.0004521637
14	0x3965dfa4	0.00021922454
15	0x3977e0b1	0.0002363946

exp_avg_sq f4 [4, 4, 1]
0	0x35356193	6.7569744e-07
1	0x34c592b6	3.6800856e-07
2	0x35738d19	9.072988e-07
3	0x33dfa716	1.04146395e-07
4	0x353912de	6.8945326e-07
5	0x35279239	6.242513e-07
6	0x356fc50e	8.932119e-07
7	0x335b14e3	5.1008907e-08
8	0x3061d6d0	8.215979e-10
9	0x325faf47	1.3020162e-08
10	0x3420b26e	1.4966074e-07
11	0x31a0e4af	4.682611e-09
12	0x365998cd	3.2424462e-06
13	0x370adc88	8.276787e-06
14	0x35f2aff8	1.8081619e-06
15	0x35c15057	1.4403003e-06

exp_avg f4 [4]
0	0xb9a17a8f	-0.00030799626
1	0x3994ce08	0.00028382265
2	0x3856100e	5.1036528e-05
3	0xba3d6ef9	-0.0007226314

exp_avg_sq f4 [4]
0	0x35ea9d33	1.748011e-06
1	0x359f41b5	1.1865546e-06
2	0x342504be	1.5368548e-07
3	0x375a31ee	1.3005438e-05

exp_avg f4 [4, 4, 1]
0	0x3a4ff846	0.0007933419
1	0xb9f79d4a	-0.000472287
2	0xba8d72b0	-0.0010791626
3	0xba4a6b73	-0.00077216997
4	0xba410da5	-0.0007364399
5	0x39fc8970	0.00048167584
6	0x3a8c48fa	0.0010702901
7	0x3a35c18e	0.0006933444
8	0x38ab9433	8.18152e-05
9	0xb879cf21	-5.955913e-05
10	0xb8cdfdf1	-9.822462e-05
11	0xb859da02	-5.1939867e-05
12	0x39b1a597	0.00033883445
13	0xb8bcd458	-9.004091e-05
14	0xb9e48415	-0.00043585958
15	0xb9bbaab4	-0.00035794603

exp_avg_sq f4 [4, 4, 1]
0	0x37490ade	1.1983064e-05
1	0x36d33a9e	6.295114e-06
2	0x37bded2d	2.2641e-05
3	0x3738e708	1.1021046e-05
4	0x37239329	9.7498205e-06
5	0x36c26419	5.7933034e-06
6	0x37b8763f	2.1989572e-05
7	0x37266b1e	9.919311e-06
8	0x355092f1	7.7699866e-07
9	0x35165e3a	5.601647e-07
10	0x3587abfe	1.010834e-06
11	0x352895e9	6.2803025e-07
12	0x360a4da2	2.060879e-06
13	0x34c6d6ee	3.7036756e-07
14	0x3652c83c	3.140899e-06
15	0x3616bc0d	2.2461202e-06

exp_avg f4 [4]
0	0xba8ce09f	-0.0010748095
1	0x3a8c9e33	0.0010728299
2	0xb8cd13b2	-9.77883e-05
3	0xb9ef2a62	-0.0004561721

exp_avg_sq f4 [4]
0	0x37c243de	2.3158205e-05
1	0x37bf4387	2.280042e-05
2	0x35862bb5	9.996498e-07
3	0x3662dd90	3.380559e-06

exp_avg f4 [3, 4]
0	0xb95f5856	-0.00021299845
1	0xb96c0254	-0.00022507581
2	0xb91a1583	-0.00014694598
3	0xba52bb2e	-0.0008038756
4	0x377d2691	1.5088955e-05
5	0x37baa575	2.2249975e-05
6	0xb48b2d99	-2.5923944e-07
7	0xb6f67d2c	-7.3459432e-06
8	0xb7e880fc	-2.7716618e-05
9	0xb8aeed5b	-8.3411775e-05
10	0x38745b07	5.825891e-05
11	0xb9137bad	-0.00014065085

exp_avg_sq f4 [3, 4]
0	0x3569f9b4	8.716263e-07
1	0x352a2fd7	6.339955e-07
2	0x36483ba5	2.983704e-06
3	0x3767564a	1.3788764e-05
4	0x3347488e	4.6399286e-08
5	0x338d0a8d	6.567743e-08
6	0x33d8d57b	1.0097116e-07
7	0x343fdf3d	1.7869475e-07
8	0x34c33c57	3.6365483e-07
9	0x3544fa14	7.33796e-07
10	0x34b0feab	3.296785e-07
11	0x35905694	1.0754034e-06

exp_avg f4 [3]
0	0x3a80c53a	0.0009824403
1	0x37eb50d9	2.805183e-05
2	0x393cb8fc	0.00017997989

exp_avg_sq f4 [3]
0	0x37a7942e	1.9976953e-05
1	0x33fb1f1d	1.1693758e-07
2	0x35e62f42	1.7150089e-06
