checkpoints/fno_2020.pt (torch, 83034 bytes, 36 tensors)

lifting.weight f4 [4, 4]
0	0x3f17851e	0.59187496
1	0x3f2bbeb1	0.67087847
2	0x3d86b783	0.06577971
3	0x3f44609a	0.767099
4	0xbfc97038	-1.5737371
5	0xbf5d0d44	-0.86348367
6	0x3e9badce	0.3040604
7	0xbefc2ff0	-0.49255323
8	0x3f72548a	0.94660246
9	0x3e9029ac	0.28156793
10	0x3e484279	0.19556607
11	0x3f77e9d8	0.9684119
12	0xbf11f947	-0.5702099
13	0x3e9a3b6b	0.30123457
14	0x3ebe0674	0.37114298
15	0xbf3b7abc	-0.7323415

lifting.bias f4 [4]
0	0x3ebe3c96	0.37155598
1	0xbd4e4757	-0.050361004
2	0xbf04bf73	-0.5185463
3	0xbcadd3bf	-0.021219132

fourier_blocks.0.conv.weight f4 [4, 4, 1]
0	0x3f596125	0.84913856
1	0xbf59993b	-0.84999436
2	0x3e9ee7f5	0.31036344
3	0xbeb91903	-0.36151895
4	0x3f39043b	0.7227208
5	0x3e959138	0.29212356
6	0x3f083f48	0.5322156
7	0xbf559733	-0.83433837
8	0x3e3291ae	0.17438385
9	0xbc976f43	-0.01848567
10	0xbf55f4db	-0.83576745
11	0xbd7f919e	-0.06239473
12	0xbeaf0efc	-0.3419112
13	0x3dddc45f	0.108284704
14	0xbf2a1991	-0.6644526
15	0x3f54a683	0.83066577

fourier_blocks.0.conv.bias f4 [4]
0	0x3e77d86a	0.24203649
1	0x3e724b1e	0.23661467
2	0xbec5c8c4	-0.38629735
3	0xbe0f89aa	-0.14017358

fourier_blocks.1.conv.weight f4 [4, 4, 1]
0	0xbef17fc9	-0.47167805
1	0xbf34cb0d	-0.7062233
2	0xbf67785e	-0.9041804
3	0x3f111b13	0.56681937
4	0xbf0e7a39	-0.55655247
5	0x3f35c4c3	0.7100336
6	0x3ea3435f	0.31887338
7	0x3f19182b	0.598025
8	0xbf4ce50a	-0.80036986
9	0xbed25db3	-0.41087112
10	0xbeb4e4a5	-0.35330692
11	0xbf53f36a	-0.82793295
12	0x3e835417	0.25650093
13	0x3f4c143c	0.79718375
14	0xbf94452f	-1.1583613
15	0xbee46b1a	-0.44612962

fourier_blocks.1.conv.bias f4 [4]
0	0xbee0155e	-0.43766302
1	0xbec2a818	-0.3801887
2	0x3e34ac99	0.17643966
3	0x3ed86bb6	0.42269677

fourier_blocks.2.conv.weight f4 [4, 4, 1]
0	0x3f7eb726	0.9949821
1	0x3e97d5e4	0.29655373
2	0xbc8429ca	-0.016133208
3	0xbeb0255a	-0.34403497
4	0x3e3e2099	0.18567123
5	0x3e6d8d52	0.2319844
6	0x3e86e9ea	0.26350337
7	0xbf57cba2	-0.84295094
8	0x3f10f112	0.56617844
9	0xbf5d09b4	-0.8634293
10	0xbf277d7a	-0.6542584
11	0xbee4d040	-0.44690132
12	0xbf4e36d8	-0.80552435
13	0x3f497a97	0.7870268
14	0xbf171ddf	-0.59029955
15	0xbf51530f	-0.8176736

fourier_blocks.2.conv.bias f4 [4]
0	0xbec7b2ea	-0.39003688
1	0xbeb4425f	-0.35206887
2	0xbe82c692	-0.25542122
3	0xbecdf070	-0.40222502

fourier_blocks.3.conv.weight f4 [4, 4, 1]
0	0x3d428bfc	0.04749678
1	0xbe7860c6	-0.24255666
2	0x3d1897a4	0.03725399
3	0x3ef96a5d	0.4871396
4	0x3d5dc66d	0.05414431
5	0x3ee5faf2	0.4491802
6	0x3f236a96	0.6383451
7	0xbf99a651	-1.2003881
8	0xbf20174a	-0.62535536
9	0xbe8b541d	-0.2721261
10	0xbf6a8ea7	-0.9162392
11	0x3f293c95	0.66108066
12	0xbe949b76	-0.29024857
13	0xbf5394b2	-0.82648766
14	0xbf3ed867	-0.74548954
15	0xbe8f4add	-0.27986804

fourier_blocks.3.conv.bias f4 [4]
0	0x3c439810	0.01193811
1	0x3e512280	0.20423317
2	0x3e97df3c	0.29662502
3	0x3d1bab5d	0.03800522

projecting.weight f4 [3, 4]
0	0x3f8e47c6	1.1115654
1	0x3f15314e	0.5827836
2	0xbf9d754c	-1.2301421
3	0xbecc48da	-0.3989933
4	0x3e3e7a85	0.18601425
5	0x3ef60c60	0.48056316
6	0x3e805e45	0.25071922
7	0xbeac2938	-0.33625197
8	0xbf284493	-0.65729636
9	0x3f7888ac	0.97083545
10	0xbf3003cc	-0.68755794
11	0x3f9affd4	1.2109323

projecting.bias f4 [3]
0	0x3f71ebb0	0.94500256
1	0x3e9eeb50	0.31038904
2	0xbd20a314	-0.039218023

exp_avg f4 [4, 4]
0	0xb89c7211	-7.459906e-05
1	0x3a26536c	0.0006344828
2	0x39593881	0.00020715782
3	0xb90d7a25	-0.0001349231
4	0x39370ff1	0.00017458179
5	0xba713f3a	-0.0009202842
6	0xba579de4	-0.00082251267
7	0x3a0c6eb5	0.0005357073
8	0xb9b41d58	-0.00034354138
9	0x3a34be1e	0.0006894785
10	0x3a5c8624	0.00084123225
11	0xba0fa0dd	-0.00054789876
12	0x383eef34	4.5522305e-05
13	0xb9f4b9af	-0.00046677652
14	0x3911e6c0	0.00013914239
15	0xb8be0dab	-9.062452e-05

exp_avg_sq f4 [4, 4]
0	0x35b953e1	1.3807986e-06
1	0x38a67b9c	7.938521e-05
2	0x36f5d6aa	7.326559e-06
3	0x365091ae	3.1079212e-06
4	0x352bab14	6.3951416e-07
5	0x381cecd0	3.7413847e-05
6	0x378af23e	1.6563685e-05
7	0x36ebc359	7.026287e-06
8	0x372477e2	9.803074e-06
9	0x3910a380	0.00013793819
10	0x37e2ee0a	2.7052145e-05
11	0x374086db	1.147549e-05
12	0x360db9a8	2.1118703e-06
13	0x394d7285	0.00019592985
14	0x379027bb	1.7184639e-05
15	0x36f49a13	7.2897033e-06

exp_avg f4 [4]
0	0x39677e35	0.00022076892
1	0xba65c889	-0.0008765539
2	0x3a6b034c	0.000896503
3	0x391b7cdc	0.00014828466

exp_avg_sq f4 [4]
0	0x370b9a2e	8.320943e-06
1	0x379dcdeb	1.8811746e-05
2	0x3800dd61	3.0723753e-05
3	0x37a3b85f	1.9516969e-05

exp_avg f4 [4, 4, 1]
0	0x39d53eca	0.00040673307
1	0xb8f41f32	-0.00011640637
2	0xba009b02	-0.00049059105
3	0x3a4d5098	0.0007832139
4	0xb891e5e4	-6.956959e-05
5	0xb8c8612c	-9.554843e-05
6	0x399ded8b	0.00030122357
7	0xb9a95d3b	-0.00032303654
8	0xb6ab0fa8	-5.0980198e-06
9	0xb9e2bd5e	-0.0004324717
10	0x3a31824d	0.00067714305
11	0xba25d8d3	-0.000632656
12	0xb955158e	-0.00020321293
13	0x397ef2f4	0.00024313835
14	0xb8f1e57d	-0.00011534521
15	0xb8ab8ad4	-8.179774e-05

exp_avg_sq f4 [4, 4, 1]
0	0x36898520	4.098416e-06
1	0x354465b3	7.316368e-07
2	0x36c594e2	5.8883898e-06
3	0x376b72a9	1.4033788e-05
4	0x37e86347	2.7702785e-05
5	0x3805f359	3.1936306e-05
6	0x35f14595	1.797615e-06
7	0x37a7e4a9	2.001443e-05
8	0x3890e993	6.909962e-05
9	0x385590ce	5.0918017e-05
10	0x376c1173	1.4070759e-05
11	0x38b4f092	8.6278786e-05
12	0x382dd712	4.1446714e-05
13	0x384f5cf2	4.9439208e-05
14	0x34cd9b9a	3.829744e-07
15	0x37cec535	2.4648945e-05

exp_avg f4 [4]
0	0x3a268b91	0.00063531945
1	0xb9b6b223	-0.00034846467
2	0xba2159f3	-0.0006155066
3	0x38c56257	9.412009e-05

exp_avg_sq f4 [4]
0	0x372dcbd7	1.0359064e-05
1	0x37207282	9.563404e-06
2	0x37f0c18b	2.8700355e-05
3	0x370d5a4a	8.425277e-06

exp_avg f4 [4, 4, 1]
0	0xb934fdaa	-0.00017260635
1	0xb99d98c3	-0.0003005919
2	0x39fc842b	0.00048163658
3	0x39f3cf54	0.00046503043
4	0xb932b523	-0.00017042882
5	0x399e9740	0.00030248798
6	0xb9bb5049	-0.00035727237
7	0xb9f3dd83	-0.0004651361
8	0xba2bacb5	-0.00065488677
9	0xb9c887bd	-0.00038248106
10	0x3998b1a2	0.00029124046
11	0x39b4fa05	0.00034518554
12	0xb8ce34e4	-9.832697e-05
13	0xb89bc94d	-7.428471e-05
14	0x38a7bc26	7.998226e-05
15	0x39033002	0.00012511018

exp_avg_sq f4 [4, 4, 1]
0	0x37809848	1.53297e-05
1	0x3711efe9	8.698532e-06
2	0x36a4f6f2	4.916329e-06
3	0x371cea07	9.352813e-06
4	0x365c2bb8	3.2808002e-06
5	0x364ece84	3.08166e-06
6	0x367fbfa1	3.8109504e-06
7	0x36bedbf6	5.688048e-06
8	0x3787f26b	1.6206139e-05
9	0x3681691c	3.856736e-06
10	0x368aa246	4.1316116e-06
11	0x36760350	3.6658785e-06
12	0x35652f68	8.5378133e-07
13	0x34ff8bcd	4.759917e-07
14	0x34994856	2.8551102e-07
15	0x35940995	1.1029648e-06

exp_avg f4 [4]
0	0x3a0e9569	0.0005439134
1	0xba6cf797	-0.00090395793
2	0x37a60fce	1.9796102e-05
3	0x38df37c9	0.000106438594

exp_avg_sq f4 [4]
0	0x380cc519	3.3562163e-05
1	0x37c61a4f	2.361569e-05
2	0x3600677f	1.913373e-06
3	0x3518ca98	5.6919225e-07

exp_avg f4 [4, 4, 1]
0	0xb93794ad	-0.00017507626
1	0x38d36529	0.000100801066
2	0xb90391ed	-0.00012547495
3	0xb7b1c937	-2.1193742e-05
4	0xb937ed7b	-0.00017540708
5	0x374f99fe	1.2374016e-05
6	0x376fe610	1.4299076e-05
7	0x398084e7	0.00024513082
8	0xba35d485	-0.000693627
9	0xb9427313	-0.0001854415
10	0xb9b3b1f9	-0.0003427414
11	0x3954ed24	0.00020306237
12	0x3957cf43	0.00020581209
13	0xb8d1c61b	-0.000100027966
14	0x38211fa8	3.8414873e-05
15	0x39df7df9	0.0004262773

exp_avg_sq f4 [4, 4, 1]
0	0x3532e907	6.6649267e-07
1	0x35abd0a6	1.2801218e-06
2	0x353237cb	6.6391357e-07
3	0x35e4b205	1.7039134e-06
4	0x356ca7f2	8.8161244e-07
5	0x33fbd211	1.1726309e-07
6	0x340651f2	1.2509534e-07
7	0x35ec3185	1.7597782e-06
8	0x3726abf8	9.934411e-06
9	0x37115c65	8.664186e-06
10	0x361e85cd	2.3621717e-06
11	0x37032417	7.816611e-06
12	0x3604f428	1.981165e-06
13	0x35c45146	1.4626792e-06
14	0x35c1ff17	1.4453861e-06
15	0x368dc83c	4.225438e-06

exp_avg f4 [4]
0	0xb59ae967	-1.1541823e-06
1	0xb79a9e22	-1.8431867e-05
2	0x3a1c7c71	0.0005969471
3	0xba8bf325	-0.0010677321

exp_avg_sq f4 [4]
0	0x3645f04e	2.9495163e-06
1	0x343a94e2	1.7376763e-07
2	0x37ddb8c9	2.64313e-05
3	0x383a75bc	4.4455504e-05

exp_avg f4 [4, 4, 1]
0	0xb997ad85	-0.00028930246
1	0xb9a76491	-0.0003192765
2	0x378ff43f	1.7160664e-05
3	0xb9146683	-0.00014152568
4	0xb9d07433	-0.00039759427
5	0xb9baf899	-0.00035661904
6	0xb9316dcb	-0.00016920936
7	0xb883e721	-6.289618e-05
8	0x39b554f7	0.00034586314
9	0x38aecacf	8.3347426e-05
10	0x38eba16c	0.000112357404
11	0x38eb81bf	0.0001122984
12	0x38b5b22b	8.663939e-05
13	0x3993a2d8	0.00028159353
14	0xb8af1e0d	-8.350248e-05
15	0x38de69ca	0.0001060549

exp_avg_sq f4 [4, 4, 1]
0	0x3676168b	3.6669978e-06
1	0x3705fc72	7.986195e-06
2	0x36925dcb	4.362058e-06
3	0x3660cfee	3.3499632e-06
4	0x36cae1c8	6.0463535e-06
5	0x36771fa1	3.6824279e-06
6	0x3513a2c7	5.499864e-07
7	0x34ce0c11	3.837927e-07
8	0x36cca5ca	6.098974e-06
9	0x36db3927	6.533362e-06
10	0x35afce5d	1.3098576e-06
11	0x368e9037	4.2487186e-06
12	0x34f5992f	4.5746262e-07
13	0x36118ac6	2.168746e-06
14	0x35892a97	1.0219691e-06
15	0x355927d3	8.089675e-07

exp_avg f4 [4]
0	0xb948f251	-0.00019163756
1	0x3a17b14e	0.00057866133
2	0xba194525	-0.000584679
3	0x39f71799	0.00047129093

exp_avg_sq f4 [4]
0	0x371bb616	9.281115e-06
1	0x3779e9bb	1.4895976e-05
2	0x37b707cb	2.1818929e-05
3	0x36e2f426	6.7637475e-06

exp_avg f4 [3, 4]
0	0x3883e576	6.289307e-05
1	0xb94d0436	-0.00019551892
2	0x39a5b177	0.00031603474
3	0x39ca5784	0.00038593647
4	0x37202551	9.545432e-06
5	0xb983b72f	-0.0002512275
6	0x391aa6ee	0.0001474877
7	0x39a89739	0.00032156127
8	0x3985c670	0.00025515584
9	0x397a3544	0.00023861701
10	0x39cc40f3	0.00038958303
11	0xb8267487	-3.968601e-05

exp_avg_sq f4 [3, 4]
0	0x36135674	2.195503e-06
1	0x36c13f3c	5.7592097e-06
2	0x3710ce32	8.631077e-06
3	0x371a6b0c	9.204039e-06
4	0x3516d280	5.618567e-07
5	0x35dfcca1	1.667435e-06
6	0x35ea929f	1.7477031e-06
7	0x36a52fdb	4.9229543e-06
8	0x35af2237	1.3048474e-06
9	0x35c09be9	1.4350491e-06
10	0x36c38bfe	5.82775e-06
11	0x3585e947	9.977165e-07

exp_avg f4 [3]
0	0x399899f2	0.00029106397
1	0x396f9601	0.00022848697
2	0x3a645f44	0.00087117054

exp_avg_sq f4 [3]
0	0x37dde609	2.6452371e-05
1	0x36e569e4	6.837059e-06
2	0x379da19a	1.879111e-05
