checkpoints/fno_1002.pt (torch, 56922 bytes, 36 tensors)

lifting.weight f4 [4, 4]
0	0xbf9b2e25	-1.2123457
1	0xbe023921	-0.12717105
2	0xbf00277b	-0.5006024
3	0x3f3d7b4c	0.7401626
4	0xbe0459d6	-0.12924895
5	0xbf36c05c	-0.7138727
6	0x3d023315	0.031786997
7	0xbe09988e	-0.13437101
8	0xbf72cdaa	-0.9484507
9	0x3e63ea1d	0.22257276
10	0xbdd9053e	-0.10596703
11	0x3ee44b59	0.44588736
12	0x3f70ed5e	0.94112194
13	0xbe8b559b	-0.2721375
14	0xbef23ce4	-0.4731208
15	0x3dd8136b	0.10550579

lifting.bias f4 [4]
0	0x3e8d77ea	0.2763055
1	0x3eb0da4e	0.34541553
2	0x3ed71d82	0.420147
3	0x3e4f3a8d	0.20237179

fourier_blocks.0.conv.weight f4 [4, 4, 1]
0	0xbe91725f	-0.2840757
1	0xbf5a9c03	-0.85394305
2	0xbef9a653	-0.48759708
3	0x3eb62e5f	0.35582253
4	0xbeb1fc42	-0.3476277
5	0xbf438479	-0.7637401
6	0xbe9f4182	-0.31104666
7	0xbe44bae6	-0.19211921
8	0xbfa8eb4c	-1.3196807
9	0xbf1f7300	-0.6228485
10	0xbf784507	-0.9698033
11	0x3f862776	1.0480793
12	0x3f916363	1.1358455
13	0x3e83ed36	0.25766915
14	0x3f778ef5	0.9670251
15	0x3e40f9b5	0.18845256

fourier_blocks.0.conv.bias f4 [4]
0	0xbe6c0f2b	-0.23052661
1	0x3d2e271a	0.04251776
2	0x3e83cbbc	0.25741374
3	0x3ed05eab	0.40697226

fourier_blocks.1.conv.weight f4 [4, 4, 1]
0	0xbf375fc3	-0.71630496
1	0xbf2f5fe6	-0.68505704
2	0xbf03bd61	-0.51460844
3	0x3f8f5e92	1.1200736
4	0x3ed093bc	0.40737712
5	0x3f73e67d	0.9527357
6	0x3f6f926f	0.93582815
7	0x3f2406d8	0.6407294
8	0xbf305a0c	-0.688874
9	0xbf0cfa81	-0.5506974
10	0xbe526cb3	-0.20549278
11	0x3f273906	0.65321386
12	0xbeeaef30	-0.4588561
13	0x3d8a754b	0.06760653
14	0xbff443bf	-1.9083174
15	0x4019880b	2.3989284

fourier_blocks.1.conv.bias f4 [4]
0	0xbd19bb36	-0.037532054
1	0x3eb5c0b8	0.35498595
2	0x3e972d8a	0.2952693
3	0x3d239056	0.03993257

fourier_blocks.2.conv.weight f4 [4, 4, 1]
0	0x3f1d3e34	0.6142304
1	0x3f592d81	0.8483506
2	0xbf1ab294	-0.6042874
3	0x3c68f765	0.01421914
4	0x3fb32282	1.3994906
5	0x3e7422bd	0.23841377
6	0x3f86ee18	1.054141
7	0x40e54675	7.1648507
8	0x3f366167	0.71242374
9	0xbf26bf1a	-0.6513535
10	0x3f64632f	0.8921384
11	0x3f12d294	0.57352567
12	0xbf1c116f	-0.609641
13	0x3ebd8e5c	0.37022674
14	0xbdd2c403	-0.102912925
15	0xbf104048	-0.56348085

fourier_blocks.2.conv.bias f4 [4]
0	0x3c9d47d6	0.019199293
1	0x3f144d3f	0.5793037
2	0xbe95ddb1	-0.292707
3	0x3dfbb7b4	0.12290898

fourier_blocks.3.conv.weight f4 [4, 4, 1]
0	0x3f1945ea	0.59872305
1	0xbe59c146	-0.21265134
2	0x3e1c959b	0.15291445
3	0x3f5cc53b	0.8623845
4	0x3f5be577	0.8589701
5	0xc04113f3	-3.0168426
6	0x3e532151	0.20618178
7	0xbecd8bb4	-0.40145648
8	0x3ea5dc25	0.3239452
9	0x3e8ebb94	0.27877486
10	0x3f50c89f	0.81556123
11	0xbf2e0ebb	-0.67991227
12	0xbf2c8a5b	-0.67398614
13	0x3efbdf6c	0.49193895
14	0x3f9564c4	1.1671376
15	0xbeeb290b	-0.4592975

fourier_blocks.3.conv.bias f4 [4]
0	0x3e460c8f	0.19340728
1	0x3f49b2e6	0.787886
2	0x3dbe4500	0.092905045
3	0x3e145265	0.14484556

projecting.weight f4 [3, 4]
0	0x3f792719	0.97325283
1	0xbe877295	-0.26454607
2	0x3f2fff20	0.68748665
3	0x3f808c81	1.0042878
4	0xbf8647c0	-1.0490646
5	0xbe1f5fcc	-0.15563887
6	0xbf17ccbd	-0.5929678
7	0x3f2b39e5	0.66885215
8	0x3ef84587	0.48490545
9	0xbf8f9d6e	-1.1219919
10	0xbf511b02	-0.81681836
11	0x3db7d614	0.08976379

projecting.bias f4 [3]
0	0x3df1e6c5	0.11811594
1	0x3ee60507	0.4492571
2	0xbf80834b	-1.0040067

exp_avg f4 [4, 4]
0	0xbaf0e6db	-0.0018379347
1	0x3c867413	0.01641277
2	0xbaa0c17e	-0.0012264696
3	0xbc1f2d3a	-0.009715373
4	0xba30cd6b	-0.0006744477
5	0x3b8bbc81	0.004264415
6	0xb9bc59e9	-0.00035925143
7	0xbb22c56f	-0.0024836918
8	0xba204048	-0.0006113094
9	0x3c4dc524	0.012559209
10	0xba706653	-0.0009170521
11	0xbbf44f6a	-0.007455756
12	0x3991ef0f	0.00027834668
13	0xbbdf31d7	-0.0068113613
14	0x3a077f7c	0.0005168838
15	0x3b83dbf7	0.0040240246

exp_avg_sq f4 [4, 4]
0	0x3886f158	6.434572e-05
1	0x3b8350a4	0.004007416
2	0x38b4263b	8.59019e-05
3	0x3b03c779	0.0020107909
4	0x37418abf	1.1536001e-05
5	0x39cf06b3	0.00039487108
6	0x3722a5fa	9.694597e-06
7	0x394e59e6	0.0001967918
8	0x37bfc38c	2.2860033e-05
9	0x3b1906be	0.0023349966
10	0x3851a634	4.998427e-05
11	0x3a99c1dc	0.0011730748
12	0x37f4576c	2.9127776e-05
13	0x3a36fa81	0.0006980077
14	0x376433ca	1.3601917e-05
15	0x39b32173	0.00034166462

exp_avg f4 [4]
0	0x3c23eb47	0.010004825
1	0x3b292642	0.0025810157
2	0x3bfb1f7e	0.0076636663
3	0xbb87f933	-0.00414958

exp_avg_sq f4 [4]
0	0x3ae14788	0.0017187456
1	0x3931a627	0.00016941932
2	0x3a835290	0.0010019112
3	0x399b4ad8	0.00029619667

exp_avg f4 [4, 4, 1]
0	0x37d32b6d	2.5173382e-05
1	0x39ce27e2	0.00039321097
2	0xb9c2a505	-0.00037125513
3	0x397bfa57	0.00024030484
4	0x39e033d4	0.00042763224
5	0xb9a57c5d	-0.0003156391
6	0x3a3468bb	0.0006882061
7	0xba1012ff	-0.00054959947
8	0xba15b898	-0.00057114055
9	0x3b009491	0.0019619802
10	0xbb17abcb	-0.0023143168
11	0x3ac02a59	0.0014661058
12	0x3a4ea04a	0.00078821613
13	0xbb1d45a4	-0.0023997808
14	0x3b39506e	0.00282767
15	0xbae33958	-0.0017335815

exp_avg_sq f4 [4, 4, 1]
0	0x36971443	4.5025095e-06
1	0x3678f441	3.7097054e-06
2	0x3630b92e	2.6333832e-06
3	0x3654c9c0	3.1707896e-06
4	0x3669cf90	3.4840523e-06
5	0x361ac066	2.305978e-06
6	0x37960e76	1.7888127e-05
7	0x37b09a99	2.1052825e-05
8	0x388b81cd	6.652214e-05
9	0x38b54d13	8.645109e-05
10	0x38a2faad	7.771454e-05
11	0x38bb579e	8.933175e-05
12	0x38fc82e1	0.000120406745
13	0x390f0ecc	0.00013643055
14	0x38f84f77	0.00011840363
15	0x391736cc	0.00014420896

exp_avg f4 [4]
0	0xb9f89584	-0.00047413644
1	0x39e45bfe	0.00043556088
2	0xbb1ba207	-0.00237477
3	0x3b38fee5	0.00282281

exp_avg_sq f4 [4]
0	0x3734ab02	1.0768652e-05
1	0x373aadd4	1.1126936e-05
2	0x3985b0b5	0.00025499394
3	0x39d97a11	0.00041480412

exp_avg f4 [4, 4, 1]
0	0x37048882	7.899596e-06
1	0x39c28867	0.0003710419
2	0xb951b8c3	-0.00020000622
3	0x3985fd38	0.000255564
4	0xb8bfd766	-9.147711e-05
5	0x386b7a91	5.6142515e-05
6	0xb912bc62	-0.00013993823
7	0x390e3bd0	0.00013564457
8	0x37d39a04	2.522488e-05
9	0x394e5f0c	0.00019681099
10	0xb8dacab0	-0.000104328035
11	0x3909b3ee	0.00013132367
12	0x3a1474f1	0.00056631776
13	0x3a49e9ca	0.0007702379
14	0xb93f7cd0	-0.00018261676
15	0x39e2fd26	0.0004329469

exp_avg_sq f4 [4, 4, 1]
0	0x342b3e82	1.5948356e-07
1	0x35eb5a97	1.753523e-06
2	0x34e4a6f0	4.2589772e-07
3	0x35249c5a	6.132228e-07
4	0x34c2b455	3.6266525e-07
5	0x33cace54	9.443889e-08
6	0x354950df	7.499602e-07
7	0x35303ba9	6.5651926e-07
8	0x3481b8b1	2.4162503e-07
9	0x35bd6540	1.4111065e-06
10	0x355f5bb3	8.3207414e-07
11	0x356a86e4	8.7368085e-07
12	0x36dfbdbc	6.668006e-06
13	0x38010822	3.076357e-05
14	0x355da546	8.256942e-07
15	0x35afaf25	1.308949e-06

exp_avg f4 [4]
0	0x3a00e951	0.00049175794
1	0x390bd94c	0.00013337022
2	0x396ff05d	0.00022882358
3	0x3a742d3c	0.0009314602

exp_avg_sq f4 [4]
0	0x36429f36	2.9000926e-06
1	0x357e1698	9.465525e-07
2	0x3613796b	2.1975382e-06
3	0x384c4cd1	4.870893e-05

exp_avg f4 [4, 4, 1]
0	0x39562587	0.0002042261
1	0x3866cb16	5.502541e-05
2	0x398320f2	0.00025010813
3	0x39ab1c91	0.00032636945
4	0xb79e464e	-1.8867806e-05
5	0x38fe1e72	0.00012117335
6	0xb8a765c5	-7.9821366e-05
7	0x3777d5f3	1.4772161e-05
8	0x398b9b88	0.00026628026
9	0x3982de01	0.00024960938
10	0x39421145	0.00018507715
11	0x39a1e11e	0.00030876038
12	0xb7c6472d	-2.3636583e-05
13	0xb9016ede	-0.000123437
14	0xb6974f37	-4.5093725e-06
15	0xb8aa14fd	-8.110141e-05

exp_avg_sq f4 [4, 4, 1]
0	0x353aaaf4	6.953917e-07
1	0x335ff0e6	5.214033e-08
2	0x3547aeee	7.4387833e-07
3	0x35847128	9.867699e-07
4	0x347391e8	2.2684219e-07
5	0x3549200e	7.492498e-07
6	0x34a19d07	3.010284e-07
7	0x314cd151	2.980489e-09
8	0x35d5f991	1.594237e-06
9	0x35d98128	1.6205349e-06
10	0x350f3517	5.334891e-07
11	0x361df1f7	2.3535665e-06
12	0x33c42563	9.133762e-08
13	0x340ca7c2	1.3099546e-07
14	0x324a8fec	1.17906716e-08
15	0x33c46a41	9.146289e-08

exp_avg f4 [4]
0	0x39911b15	0.00027676733
1	0x3901cb4e	0.00012378136
2	0x39a1f6e3	0.00030892258
3	0xb8a0b870	-7.663749e-05

exp_avg_sq f4 [4]
0	0x356a980e	8.739306e-07
1	0x3567a8b3	8.6299696e-07
2	0x361d91c0	2.347966e-06
3	0x33a666b3	7.748658e-08

exp_avg f4 [4, 4, 1]
0	0x3a37a411	0.0007005344
1	0x3a6d24d3	0.000904632
2	0x3a0d15f1	0.00053819927
3	0xba4e6a45	-0.0007874112
4	0xb96799d3	-0.0002208718
5	0xb988fa13	-0.0002612626
6	0xb9788e50	-0.00023704139
7	0x39737d69	0.00023221005
8	0x395970d3	0.00020736763
9	0x398d8cd4	0.0002699854
10	0xb9082e71	-0.00012987271
11	0xb9016564	-0.0001234017
12	0x39285041	0.00016051625
13	0x3941b30a	0.00018472612
14	0xb873ea71	-5.8154055e-05
15	0xb9015555	-0.00012334187

exp_avg_sq f4 [4, 4, 1]
0	0x3610b67c	2.1563892e-06
1	0x369e8347	4.7240496e-06
2	0x3603c678	1.9636045e-06
3	0x366e6008	3.5520661e-06
4	0x3459a8ab	2.0271061e-07
5	0x3495a7d4	2.7875524e-07
6	0x34a076de	2.988881e-07
7	0x3496db13	2.8099075e-07
8	0x353a4138	6.9385305e-07
9	0x358e287d	1.0591608e-06
10	0x3465a2db	2.1386533e-07
11	0x34705baf	2.2385096e-07
12	0x352ae37b	6.366096e-07
13	0x3581e338	9.677378e-07
14	0x342885fc	1.5694962e-07
15	0x34ae35dd	3.2449216e-07

exp_avg f4 [4]
0	0x3a74708b	0.00093246315
1	0xb99e1983	-0.00030155116
2	0x398f1599	0.00027291177
3	0x394c41e5	0.00019479504

exp_avg_sq f4 [4]
0	0x369caa57	4.6689925e-06
1	0x34ea7530	4.3671162e-07
2	0x35869a11	1.0028617e-06
3	0x35826343	9.714644e-07

exp_avg f4 [3, 4]
0	0x39a4818c	0.00031377038
1	0xb9afb825	-0.000335158
2	0x3978ebf3	0.00023739021
3	0x3944b953	0.00018761055
4	0xb93fc03b	-0.00018286791
5	0x3998ef67	0.00029170068
6	0xb971c67b	-0.00023057491
7	0xb9480971	-0.00019077004
8	0xb890f1f6	-6.911524e-05
9	0xb872a358	-5.7849422e-05
10	0x39ebceff	0.00044976917
11	0x39dd3054	0.00042188412

exp_avg_sq f4 [3, 4]
0	0x359bb952	1.1602335e-06
1	0x360ec71e	2.127555e-06
2	0x35779152	9.222614e-07
3	0x356cbe1e	8.819351e-07
4	0x344c50a9	1.9028325e-07
5	0x354a5c77	7.538542e-07
6	0x3597d684	1.1312809e-06
7	0x35855aa4	9.935652e-07
8	0x34c866e2	3.732776e-07
9	0x34ff6f79	4.7578558e-07
10	0x35596720	8.0988866e-07
11	0x3568d7c6	8.6740727e-07

exp_avg f4 [3]
0	0x3a356ee4	0.0006921126
1	0xb9d04e80	-0.0003973134
2	0x39232df9	0.00015562018

exp_avg_sq f4 [3]
0	0x367b6e43	3.7466095e-06
1	0x35b9b74c	1.383692e-06
2	0x35359189	6.7639536e-07
